Jobs projects/CNN with pytorch/cnn.pth (torch, 358007 bytes, 12 tensors)

conv1.weight f4 [6, 3, 5, 5]
000000 60 ac 0c bd 9e 5f 5d bd 95 81 3d be 1e 6b 02 bd
       -0.034344077 -0.054046266 -0.18506463 -0.031840436
000010 77 a0 59 bd 2c c2 24 bd 94 58 17 bd e6 d7 99 3d
       -0.053131547 -0.04022424 -0.03694971 0.075118825
000020 f7 0e b1 3d 19 82 55 bd b4 7e 1f 3e 96 38 0c 3e
       0.086454324 -0.052126024 0.15575677 0.13693461
000030 f8 28 23 3e 9e 4f 6f 3d 4d 8d 62 3d 25 ab 9e 3d
       0.15933597 0.05842554 0.055310536 0.07747487
000040 21 dc 0b 3e 60 ac 51 3d f2 be 3c bd fc 12 09 3c
       0.13658191 0.05118978 -0.046080537 0.008366343
000050 fe ff e3 3c 28 d7 35 3c d9 4d 88 bd b1 ab 63 3d
       0.027832028 0.0110986605 -0.06655473 0.05558366
000060 a8 c9 2b bd 41 4f f0 bd 9a 79 de bd 3a 3c 16 be
       -0.04194036 -0.117338665 -0.108630374 -0.14671412
000070 15 11 6e bd 20 8c d6 bd 07 6e 20 3d d8 12 80 bd
       -0.05812176 -0.104759455 0.03916743 -0.06253594
000080 5f 31 da 3d 90 8a fd 3b d0 b1 d0 bc e8 54 b5 3d
       0.10653948 0.007737465 -0.025475413 0.08854085
000090 32 fa eb 3d d0 f9 07 3e 38 e6 35 3c ab 63 ca bd
       0.1152233 0.1327889 0.011102252 -0.098822914
0000a0 cc 92 93 3d d7 ff 9e bc 2f 24 2c 3d f4 7b 83 3d
       0.07205734 -0.019409103 0.042026695 0.064201266
0000b0 11 ab 0d bc d2 da 16 bd 60 16 c5 3c ef fb 62 bd
       -0.008646742 -0.036829777 0.02405852 -0.055416044
0000c0 ca 93 1e ba 53 15 31 bd 93 a0 71 bd c5 a5 99 3b
       -0.0006049244 -0.043233227 -0.058991026 0.0046889507
0000d0 5d 48 3c bd 09 36 07 3e 4f 24 17 3e 25 77 a7 3d
       -0.04596745 0.13204207 0.14759944 0.08177022
0000e0 b6 db 2c 3e ca 4b cf 3d c8 71 19 3e 31 29 19 3a
       0.16880688 0.101218775 0.1498481 0.0005842625
0000f0 b7 44 94 3d 39 44 8c 3d 66 41 eb 3d 3f 93 c4 bb
       0.07239669 0.0684895 0.11487083 -0.0059989984
000100 31 b9 1b 3c f6 c9 b6 3c 90 85 ec 3d dc e8 8c bd
       0.009504602 0.0223131 0.115489125 -0.06880352
000110 65 28 aa bd 7f 9b e4 bd df bd b8 3d 23 63 0c bc
       -0.08308486 -0.11162471 0.0902059 -0.008568558
000120 dd 3e 18 3d f1 a9 f7 bd f6 09 43 bd c9 2d 49 bd
       0.037169326 -0.120929606 -0.04761692 -0.04911593
000130 4c e1 18 3d f7 68 54 3e 6a 26 3f 3e f6 51 49 3e
       0.037324235 0.20743166 0.18666998 0.19660172
000140 37 48 d4 bd 58 dc 11 be 33 7b 47 bc 7c 8a a3 bd
       -0.103653364 -0.1424421 -0.012175369 -0.07985398
000150 89 5d 12 3e d8 62 d6 bd ea 29 8c bd be 36 85 be
       0.14293493 -0.10468072 -0.06843932 -0.26018327
000160 8b 07 7c be 7b 50 f2 bc c0 ff 39 bc 2a be c3 bd
       -0.24612252 -0.029579392 -0.011352479 -0.09557755
000170 af 0c fe bc 1f 31 b2 bd 53 7b 34 be f7 d1 54 bc
       -0.031011907 -0.08700775 -0.1762517 -0.012989513
000180 fe d7 42 3e 62 da b7 3d 8d ef 8f bb 4a a6 8a bd
       0.19027707 0.089772 -0.0043925704 -0.06769998
000190 83 f9 9b bd c0 aa 8a 3d 06 1e 6c 3d 1c 9e d3 bc
       -0.0761595 0.06770849 0.05764582 -0.025832228
0001a0 cb 1d 40 3d 21 0c 9e bd d5 9d 03 be 03 a3 e8 bd
       0.046903413 -0.07717157 -0.12853177 -0.11359217
0001b0 76 7b f7 bd 1b 1c da 3c 08 8a 09 3e d0 f0 89 bc
       -0.12084095 0.02662473 0.13431561 -0.016838461
0001c0 a1 55 61 bd 4f a1 68 be 48 3e 90 bd 99 b5 1e 3d
       -0.055013303 -0.22717784 -0.07043129 0.038747404
0001d0 b2 20 a6 3d 25 fd af bd 86 5b fd bd 24 87 a9 bd
       0.08111705 -0.08593205 -0.12370972 -0.08277729
0001e0 6c 46 22 3e 52 83 2e 3e c2 21 69 3e b5 9f 1c 3d
       0.15847176 0.17042282 0.22766784 0.038238246
0001f0 99 f8 99 3c 52 cd 5b bd e4 1d 44 bb 0e f2 0f bd
       0.018795298 -0.053662606 -0.0029925043 -0.03514295
000200 df ec 0e 3e 97 cd 67 3c 0a d0 f8 3d 2d af 3e 3c
       0.13957547 0.0141481375 0.12149055 0.011638445
000210 b5 32 14 be 29 db 80 3d bd f6 4e 3d 48 8f ed bc
       -0.14472468 0.062918015 0.050528277 -0.028998986
000220 b0 51 22 be 15 fa 6c be 7c b5 d5 bd e1 ff 68 bd
       -0.15851474 -0.23142274 -0.10435006 -0.05688465
000230 19 5a a4 3d e5 11 d2 bd ad f8 ad 3c 40 0c 58 be
       0.08024997 -0.10257319 0.021236742 -0.21098423
000240 77 b8 ca bd 4e a9 bb 3d 1d 0e 07 3e 9b 03 32 3e
       -0.09898465 0.09163152 0.13188978 0.17384188
000250 f3 c4 d1 3d fa 37 d5 bd 2f 2d 29 3d 0d 9d 0f bd
       0.10242643 -0.10411067 0.041302856 -0.035061885
000260 56 9f 12 3d ab 51 1d bd b4 5a d3 3d 8e 41 21 bd
       0.035796486 -0.038407963 0.103200346 -0.03936916
000270 5e 88 7e 3d 66 c7 19 3d d7 b3 a8 3d 7a a9 32 3d
       0.06214177 0.037543677 0.08237427 0.043618657
000280 0c 11 dc 3d 96 41 d6 3d b1 51 6c 3c 95 21 14 be
       0.10745439 0.10461728 0.014423774 -0.14465936
000290 2e 3c dc 3d 43 01 96 bb 6a e6 a2 3d 77 7d 1d 3e
       0.10753666 -0.004577787 0.07954104 0.15379892
0002a0 e2 01 0a bd cf 84 1b be 23 97 97 bd 22 91 82 3d
       -0.0336932 -0.15187381 -0.07401874 0.06375338
0002b0 03 22 30 3e b1 83 45 3d 7f 1e a5 bd c8 93 fa 3b
       0.17200474 0.048221294 -0.08062457 0.0076470114
0002c0 5d c9 17 bd c6 b4 e6 3d 67 a8 2e 3e 88 1f 6b bd
       -0.03705727 0.112649485 0.17056428 -0.057403117
0002d0 8a 29 80 3d c4 5c 54 3d bb e3 29 3c 20 77 97 bb
       0.06257923 0.05184628 0.010369237 -0.004622355
0002e0 60 b5 26 3e 3b 87 1f 3d ef fa c9 3d ef 99 1f bd
       0.16280127 0.038947325 0.09862315 -0.038965162
0002f0 96 3c ca bd a0 96 2d 3d 78 a7 63 bc 72 2d ae 3d
       -0.09874837 0.042379975 -0.013894908 0.08504762
000300 06 7c f1 3d ae e7 8d 3c e0 06 fe bd d2 67 d9 bc
       0.11791234 0.017322388 -0.12403655 -0.026538763
000310 0d 41 8c 3d 2c 27 b9 3d ea ec b3 3d 97 18 a5 3b
       0.06848345 0.090406746 0.08785422 0.0050383317
000320 7a ac 05 be 5e dd ab bd 84 a0 4e 3d 3f 07 04 bc
       -0.13054076 -0.08391832 0.05044605 -0.008058368
000330 ee a5 a6 bd 20 00 99 bd d0 72 11 be a9 98 57 be
       -0.08137117 -0.07470727 -0.14203954 -0.21054329
000340 10 92 f5 bd eb a5 80 3c a0 86 fb 3c 15 ad 7a 3d
       -0.1199075 0.015704116 0.030703843 0.06120022
000350 e7 65 3d be 8a 6b 60 be 3a 25 b1 bd 1f e9 d7 3d
       -0.18495904 -0.21916023 -0.086496785 0.10542511
000360 d5 10 cf 3d 10 ea 1f bd e3 9a cd bd 11 99 65 be
       0.10110632 -0.03904158 -0.10039308 -0.22421671
000370 52 26 71 bd bf 5a 1b 3e 9f 18 90 3c 43 27 5d bc
       -0.058874436 0.15171336 0.017589865 -0.01349813
000380 cb 81 45 be 1b f1 2a 3d 9d 7f b8 3d ea 29 e8 3d
       -0.19287793 0.041733842 0.09008715 0.113361195
000390 44 1a cd bb e5 c6 38 bd a3 f3 79 bd 19 d4 1f 3e
       -0.0062592346 -0.045111556 -0.061023366 0.15608253
0003a0 9d a7 6a 3d d9 24 99 3c 1c ae f3 3c 6f 2b 32 3e
       0.057288755 0.018694328 0.029746108 0.17399381
0003b0 5b 0f 89 3d 43 c0 29 be 03 37 29 be 7f e2 fe bc
       0.06692382 -0.16577248 -0.16524892 -0.031113861
0003c0 06 d0 13 3e 79 36 5a be 81 45 40 be 92 7d f7 bc
       0.14434823 -0.21309842 -0.18776514 -0.030211244
0003d0 67 4d 1c 3e 0f 50 63 bd b8 bd 6b be 10 10 48 3d
       0.15263902 -0.05549627 -0.2302159 0.048843443
0003e0 3c 43 ed 3d f1 c8 c6 3d 79 cc a6 bc 99 e9 5a bd
       0.115850896 0.09706295 -0.020361172 -0.053445432
0003f0 a8 6e fa 3c 9c 4a 00 bd 39 ca fd bc 98 1b 0f bd
       0.030570343 -0.031321153 -0.030980216 -0.034938425

conv1.bias f4 [6]
000000 f1 32 0c 3e 81 f0 82 bd 5b d8 c1 3d 64 30 37 3d
       0.13691308 -0.06393529 0.09465095 0.044723883
000010 a0 71 a9 3c f9 7c bd 3b
       0.020684063 0.00578272

conv2.weight f4 [16, 6, 5, 5]
000000 1b e9 0f bc b5 ea 77 3d ea b5 12 bb 73 da 3e bd
       -0.008783604 0.06052657 -0.0022386261 -0.04659505
000010 24 75 aa 3c d6 2f 37 be 12 5b 5b bd 33 1d 3c bd
       0.02080781 -0.17889342 -0.05355365 -0.045926284
000020 2d bc b7 3d e8 18 d8 3c 8a d9 7e be 93 a9 91 bd
       0.089714386 0.026379064 -0.24887672 -0.07112422
000030 1b 0b c9 3d 25 49 c8 3d d1 3a e0 3d fc 5d b3 bd
       0.09816571 0.09779576 0.10948718 -0.087581605
000040 99 3e b7 bc 2e 23 88 bd 7e d4 5b bd 6d 74 ad 3d
       -0.022368716 -0.06647335 -0.053669445 0.08469472
000050 bf f4 39 bd be c8 4c bd 46 e6 24 bd 02 54 3b 3c
       -0.045399424 -0.04999613 -0.04025867 0.011433603
000060 8f 85 13 3e 2d ab a6 bb 92 0e 68 bd 5b e3 d4 bc
       0.14406417 -0.0050863237 -0.05665452 -0.025987318
000070 31 d9 47 bd b7 2c 39 be c5 f1 f1 3d 85 d6 0c bc
       -0.048791114 -0.18083464 0.11813692 -0.008596067
000080 a2 d2 67 bb 3e 73 dd bc 61 4c 11 be 7a 50 84 3d
       -0.003537335 -0.02703249 -0.14189292 0.06460662
000090 cc 49 f8 3c d1 08 31 bd ed f8 91 bd e1 f5 0d be
       0.030308627 -0.0432213 -0.07127557 -0.13863327
0000a0 0e 1c 80 3d 61 1d 70 3d 6f 17 82 bd 12 30 f3 bd
       0.06255351 0.058621768 -0.06352126 -0.11874403
0000b0 73 de 04 be 02 ee 52 3d 46 83 78 3c 20 6c 18 3d
       -0.12975483 0.051496513 0.015168017 0.03721249
0000c0 25 16 ed bc 1a b6 ce bd a6 7a c2 bd 56 9c b4 bd
       -0.028941223 -0.10093327 -0.094960496 -0.08818881
0000d0 2c 72 a2 bd 83 d5 80 3c 71 ff cd bc 85 88 17 be
       -0.07931933 0.01572681 -0.025146218 -0.14798172
0000e0 62 9e 85 3c 04 49 1b be c2 1a 86 bd 4e 18 7a bd
       0.016310874 -0.15164572 -0.065480724 -0.061058335
0000f0 86 78 93 3c 2f 16 12 bd 6e 34 24 3d bf c8 10 3d
       0.018001806 -0.035665687 0.040089063 0.035347696
000100 9d 93 e1 bd f1 40 b3 3c e1 09 a7 3c 71 64 88 3d
       -0.11014483 0.021881552 0.020390453 0.06659783
000110 3c 54 56 3d c4 bb 2f be 7c 1a 4c 3d 08 ec 7f bb
       0.052326426 -0.1716147 0.049829945 -0.0039050598
000120 ef 4e 0f bc 2e 61 ce bd bd a7 1f be 6c ba 45 3d
       -0.008746847 -0.10077129 -0.15591331 0.04827349
000130 3b 80 88 3d 16 c8 22 3e 74 a0 06 3e a3 c8 03 bd
       0.06665083 0.15896639 0.13147146 -0.032173764
000140 42 3c 87 3d 4d 55 f7 3d fe c8 28 3d d3 0b 52 3d
       0.0660329 0.12076817 0.041207306 0.051280808
000150 21 a1 c4 bd f8 08 18 3e 34 17 02 3e ec 79 9b 3d
       -0.096010454 0.14847171 0.12704164 0.07591614
000160 dc 45 2f 3d b2 45 06 be e5 0d 43 3e 1f 2b 3a 3e
       0.042791232 -0.13112524 0.19048269 0.18180512
000170 d8 54 97 3d 8e 34 b3 bd c3 8d 22 be dd de 27 3e
       0.073892295 -0.087502584 -0.1587439 0.1639361
000180 fa 9b 19 3d f6 f2 2c 3d ef 79 a4 bb 64 f1 55 be
       0.037502266 0.042223893 -0.0050194184 -0.20892864
000190 94 24 a3 3d 66 c1 7c 3d 6b 49 df 3c 55 91 84 3d
       0.07965961 0.061707877 0.027256688 0.064730324
0001a0 d4 ae f0 3b b3 ee 45 3d 96 b6 9a bc bf 00 1f be
       0.00734506 0.048323344 -0.018885892 -0.15527628
0001b0 23 25 0a be 67 1c a5 bd 42 ee b3 bd c5 7b 92 bd
       -0.13490729 -0.08062058 -0.087856784 -0.071525134
0001c0 c2 4f cb bd 25 3b 3a be af 37 bc bd 4d d2 8f bd
       -0.09927322 -0.18186624 -0.09190308 -0.070225336
0001d0 07 87 bb bd b3 a5 d3 3c b6 d6 8f 3c 32 df 93 bd
       -0.09156614 0.025835847 0.017558437 -0.072203055
0001e0 b2 24 0a 3c 15 53 53 3d 91 c8 e5 bc 8e 22 b3 bd
       0.0084316 0.051592905 -0.02804974 -0.08746825
0001f0 e3 24 38 bd 16 07 21 bc b8 08 13 3d 90 f1 0f 3e
       -0.044957053 -0.00982835 0.035896987 0.14056993
000200 32 ca c3 3d 4e 7c f8 3d 21 e5 a9 3c a3 fc 98 3d
       0.0956005 0.12133084 0.02073914 0.07470062
000210 88 7a 2f 3e ea d3 13 3e 43 d3 10 3e 6f 8a 11 3e
       0.17136586 0.14436308 0.1414309 0.14212964
000220 9f 3c e4 ba 8f 44 1d 3d 72 da 8a bb cc 08 16 bb
       -0.0017413086 0.03839546 -0.0042374665 -0.0022893427
000230 03 45 11 3e b5 ef 08 3d 3f af 2f 3d 5c 5f 72 3d
       0.14186482 0.033431727 0.042891737 0.059172973
000240 87 ac d2 3a a9 11 25 3e 82 22 12 3c 8f dd a3 bc
       0.0016073146 0.16120018 0.00891936 -0.020003108
000250 f2 b4 d9 3d a4 eb 1e 3c 7d 71 36 3d fe f1 b4 3d
       0.10630216 0.009699736 0.044541825 0.08835219
000260 a0 14 1e 3e 17 28 03 3e 36 81 02 3e 9a 41 06 3c
       0.15437555 0.12808262 0.12744603 0.008194352
000270 9d 10 40 3d 52 ec fc 3d 94 ff 3e 3d 4b f1 96 3d
       0.046890844 0.12349762 0.046630457 0.07370242
000280 de 47 df 3c a0 25 21 bd fb 74 6d bd ed 49 8b 3d
       0.027255949 -0.039342523 -0.05797289 0.068012096
000290 05 0d 2a bc a8 74 34 bd f4 85 c3 bd 54 46 c7 bd
       -0.010379081 -0.044056565 -0.09547034 -0.09730211
0002a0 bf 0a 80 bd 7b 7d 09 be e8 0c 35 bd 06 6e 86 3c
       -0.0625205 -0.13426773 -0.04420176 0.016409885
0002b0 b2 5f f3 bd f0 00 d0 bc 13 be 2d be e7 04 16 bd
       -0.11883487 -0.025391072 -0.16967039 -0.03662577
0002c0 d6 b3 52 3d 79 a5 a1 3d 01 04 88 bc 74 2f bd 3c
       0.051441036 0.078928895 -0.016603472 0.023093916
0002d0 3e 88 e3 bd 48 02 96 bd 15 8f c3 bd 07 b3 4b bd
       -0.111099705 -0.07324654 -0.09548775 -0.04973128
0002e0 6a 8d 2b 3d c0 57 5d bd 3c 4d b2 3d c5 5c 48 3d
       0.04188291 -0.054038763 0.087061375 0.048916597
0002f0 96 eb 78 bd f3 23 d8 bc f1 72 30 3d 07 c8 0d bb
       -0.060771547 -0.02638433 0.043078367 -0.0021634118
000300 61 93 d8 bc f3 b6 2d bc 37 3d ae 3d a8 fa 72 bc
       -0.026437463 -0.0106027005 0.085077696 -0.014830269
000310 31 8c f1 3d d1 fc 86 3d 4c f7 99 3d 94 e1 db 3d
       0.117943175 0.0659119 0.07517871 0.10736385
000320 de 5a 74 bd da 5a a4 bd bd 19 f2 bc c3 13 0f 3c
       -0.05965697 -0.08025141 -0.029553289 0.008732739
000330 ff 56 a6 bd f8 ba 34 3d 9f f9 24 bd ce 5c b7 3d
       -0.08122062 0.04412362 -0.04027712 0.08953248
000340 40 32 da 3c bb 40 9d 3d 36 cf cc 3d a7 1b 93 3d
       0.02663529 0.07678362 0.1000046 0.07183009
000350 2b 2a b9 3d d0 f9 a8 bc f9 7c 25 3d 3b 72 47 3d
       0.09041246 -0.020626932 0.040402386 0.048692923
000360 58 07 92 3d 35 63 0f 3d 71 19 0f bd 6b f2 7e 3d
       0.07130307 0.03500672 -0.034936372 0.062242907
000370 b2 fc a8 bd 11 4a f7 bd 14 c0 2d be 3b 4b c1 bd
       -0.08251323 -0.12074674 -0.16967803 -0.09438177
000380 af 97 45 bd cd d4 49 bd ae 3f 36 be e3 9b d2 bd
       -0.04824036 -0.04927521 -0.1779773 -0.10283639
000390 4c 17 02 be a1 32 60 bd 2a 7a 0b be 75 31 02 be
       -0.127042 -0.054735783 -0.1362082 -0.12714179
0003a0 12 3d 0e be c9 07 99 bd 4a 52 0b bd d8 ee aa 3d
       -0.13890484 -0.07472188 -0.034014024 0.08346337
0003b0 bf 3c 03 3d f6 77 70 3d 6a a3 22 bc 14 45 b6 3d
       0.032040354 0.058708154 -0.009926656 0.08899894
0003c0 62 2c dd 3d b5 b4 aa 3d 79 eb 52 3b 84 f7 eb 3d
       0.10799481 0.083352484 0.003218381 0.11521819
0003d0 4f 0e 09 3e 03 bb 14 bd 2e 56 e5 bc 30 0d 23 bd
       0.13384365 -0.03631116 -0.027995195 -0.0398075
0003e0 22 4a 34 3d 35 09 0c 3d 63 bc 30 bd 70 10 e3 bd
       0.04401601 0.034188468 -0.04314841 -0.110871196
0003f0 05 e4 7e bd f7 9b 5c bd 05 cd ba bd a8 78 c6 3c
       -0.062229175 -0.053859677 -0.091211356 0.024227455

conv2.bias f4 [16]
000000 75 da 58 3d 35 95 16 be 49 a2 2c be b2 e7 88 3e
       0.05294271 -0.14705355 -0.16858782 0.2673927
000010 2a 88 46 3c 53 39 8f bd db bf 06 3e ae fe ea 3d
       0.012117425 -0.069933556 0.13159125 0.114743575
000020 d3 3b 89 bc ed bc 35 3d e5 08 76 3d f7 9c 6d bd
       -0.01675216 0.044369627 0.060067076 -0.05801102
000030 a7 48 e6 3d be fc 37 be fb 4b 96 3e d2 dd 2a 3c
       0.11244326 -0.17967507 0.29354843 0.010428863

fc1.weight f4 [128, 400]
000000 58 09 6c 3d e1 92 6b 3d 8d b5 9f 3d 4d 5d 5a 3d
       0.0576261 0.05751312 0.077983 0.053311635
000010 c7 d7 1c 3c f2 5a ea 3c c6 68 04 bc e3 fd 50 3c
       0.00957293 0.02860782 -0.008081621 0.012755844
000020 b9 87 79 bd 7e a8 71 bd 2d 3e f8 3b 46 db bc bc
       -0.06092045 -0.058998577 0.0075757713 -0.023053776
000030 8f ff ab bc 4b a5 5e bc a1 e1 f1 3c 73 8b ae 3c
       -0.020995883 -0.013589214 0.029526534 0.021306729
000040 b0 25 79 bc 77 b6 7f 3d 45 db 92 3d 78 0c 3f 3d
       -0.015206739 0.06242987 0.071707286 0.04664275
000050 15 7d 1b bc 1c f6 39 bd 74 5a b3 3b ea 00 b9 3c
       -0.009490271 -0.045400724 0.0054734293 0.022583444
000060 ec f8 01 bd 9a de 3a 3c 60 da 82 bc 98 48 95 bd
       -0.03173153 0.011405611 -0.01597327 -0.07289237
000070 93 47 39 bd b1 48 06 3d 13 2c 24 3d 8a 72 49 bd
       -0.045234274 0.032784168 0.040081095 -0.0491815
000080 7f 08 70 bd 81 f4 8e bd 44 e5 50 bd f5 91 d0 3c
       -0.058601853 -0.06980229 -0.050999895 0.025460223
000090 65 41 59 3d dd a4 40 3d 02 61 a9 3c f8 68 7e 3c
       0.05304088 0.047032226 0.02067614 0.015527956
0000a0 22 4f 2c 3d a5 eb 17 3d b8 2b 59 bd ad b6 87 3d
       0.042067654 0.037089963 -0.05302021 0.066266395
0000b0 44 ef 8d bc ed 4f a2 bc 96 82 08 bd 4e 07 cd bd
       -0.017326005 -0.019813502 -0.03332766 -0.10011159
0000c0 2a 80 51 bc 01 a0 77 3b ee 90 71 3d a8 28 ca 3d
       -0.012786904 0.0037784579 0.058976106 0.09871036
0000d0 91 96 49 3d 07 f2 bb 3c 7e a0 08 bd a6 a0 f2 3c
       0.049215857 0.022942556 -0.033356182 0.029617619
0000e0 e2 17 e1 3c 2e 5d 2b 3d 82 4e b8 3c f0 82 4d 3d
       0.027477209 0.04183691 0.022498373 0.0501737
0000f0 3a 20 5b 3c 9e 71 9f 3d 74 f4 ce bc 9e d9 b6 b9
       0.013374383 0.07785343 -0.025263049 -0.00034875883
000100 61 3b e4 3d 17 f2 a2 3d 60 54 8d 3d a3 40 a1 39
       0.11144138 0.07956331 0.06900859 0.0003075647
000110 3a ad 88 ba 20 d0 80 3d 4d 7a 53 bd 9a eb 1f 3d
       -0.0010427602 0.06289697 -0.051630307 0.039043047
000120 2b 94 48 3d 8b e2 cf bc 01 6a 11 bd 03 39 a4 bc
       0.04896943 -0.025376579 -0.035501484 -0.020046717
000130 60 bf 9a bd 3e 7b 26 bd e6 0b da bb de 58 19 be
       -0.07556033 -0.040644877 -0.0066542504 -0.14975306
000140 80 49 06 bd f0 9f d7 bc 0b cd fa bc 06 6f f1 bc
       -0.03278494 -0.026321381 -0.03061535 -0.029471885
000150 45 0e 95 bd 53 db d3 bd a7 b1 49 bd 40 0b 81 bd
       -0.07278112 -0.10344567 -0.049241688 -0.06300974
000160 5c 97 39 3c 2d b3 2d bd b8 ae 1a bb 25 e7 3e 3d
       0.011327591 -0.042407203 -0.0023602676 0.046607155
000170 51 c6 c1 bd dd 28 4b bd b2 cf a3 3c 9f 7b 64 bc
       -0.09461654 -0.049599517 0.019996498 -0.013945489
000180 f2 47 11 be 53 23 aa bd 6c 5c 09 bd 6a ee 23 3d
       -0.14187601 -0.08307519 -0.033535406 0.04002229
000190 5d 09 48 3d 15 21 e2 ba 4d 64 ee bc 76 b6 4f bc
       0.048837055 -0.0017252291 -0.029100562 -0.012677779
0001a0 91 df a4 bd f2 ee ae 3d 95 3b e6 3d 65 0a 36 3d
       -0.080504544 0.08541669 0.11241833 0.044443507
0001b0 f2 b9 8f 3d 54 1c b4 3d f6 e3 bf 3c 53 05 bb 3d
       0.07017888 0.08794466 0.02342413 0.09131875
0001c0 83 0a 6a 3d 92 73 b4 3d 5b 5d b1 3d fb c3 86 bc
       0.05713893 0.08811106 0.08660384 -0.016450873
0001d0 63 7d 10 bd c2 a8 e7 bd 12 76 6b bd be fc 90 3c
       -0.035275828 -0.11311485 -0.057485647 0.017698642
0001e0 87 45 32 be 28 f7 f1 bd 17 8a cb bd 6c 08 e2 bd
       -0.17409335 -0.118147194 -0.09938448 -0.110367626
0001f0 ab 5e cf bd 91 a3 9b 3c 40 ab 84 3b 20 61 21 3b
       -0.10125478 0.018998893 0.004048735 0.0024624541
000200 fd 4b ba 3c 4f 10 ea 3b 74 53 06 bb 63 46 f5 bc
       0.022741312 0.0071430574 -0.002049652 -0.02994079
000210 95 b1 a6 bc 33 c9 81 bd 63 f2 c4 bd 08 4c 35 3d
       -0.02034835 -0.06337204 -0.09616544 0.044261962
000220 9b 65 f7 bc 77 4b b8 bd b5 2a b7 bd 45 89 65 3c
       -0.030199816 -0.08998769 -0.089436926 0.014009778
000230 78 72 02 3d 16 b7 8e 3d b5 2f 9f 3d 06 7d 83 bd
       0.031847447 0.069685146 0.07772771 -0.06420331
000240 01 58 12 bc b6 f1 23 3d 5f 70 06 3e a3 e8 bb 3d
       -0.008932115 0.040025435 0.13128804 0.09175231
000250 53 1d af bc c1 c6 32 bd ab c2 38 3d b7 3e 40 bd
       -0.021376288 -0.043646578 0.045107525 -0.04693481
000260 80 b3 90 bc 69 5d 61 bd 42 47 6e bc 7e 05 53 3d
       -0.017663717 -0.055020723 -0.014543356 0.05151891
000270 10 c5 0c bb 51 6d 5a 3d 39 8d ed 3d 5f dc b0 3d
       -0.0021479763 0.05332691 0.11599202 0.086357825
000280 40 26 86 3d 15 9f 81 3d 28 f8 1b 3e 37 53 a3 3d
       0.06550264 0.063291706 0.15231383 0.07974856
000290 a4 9b 8a 3c 53 36 c6 bb 3a 0c ae ba 68 04 bc 3c
       0.016919918 -0.0060489564 -0.001327879 0.02295132
0002a0 53 51 36 3c ec 30 cf bb 57 a7 10 bd 0a 88 bf 3c
       0.011127788 -0.0063229706 -0.035315838 0.023380298
0002b0 a2 a0 a2 3c 10 75 5a 3d 40 52 fd 3d 76 f2 24 bd
       0.019851986 0.053334296 0.123692036 -0.04027029
0002c0 41 4f 96 bb c2 61 8b bd fb f3 40 bc 6a 21 ba bc
       -0.0045870845 -0.06805755 -0.0117769195 -0.022721011
0002d0 df 02 20 3d c5 64 00 3d 1f 7e 84 3d 57 c6 0a 3d
       0.039065238 0.0313461 0.06469368 0.033880558
0002e0 59 3e 54 bd 40 2c 26 3d 8f 70 67 3d 2f 89 0e 3e
       -0.05181727 0.040569544 0.05650383 0.13919519
0002f0 f6 f3 d6 3d fe 9e 7e 3d df bd 91 bc 1f 24 8d 3d
       0.104957506 0.062163346 -0.017790733 0.06891655
000300 0b db a1 3d 5c d4 a0 3d 4d 47 54 3d 8a 0c 8c bd
       0.07903107 0.07853004 0.05182581 -0.06838329
000310 c0 fd 49 bd d8 90 57 3c 38 3a 81 bb c1 19 9f 3d
       -0.04931426 0.013157092 -0.003943708 0.07768584
000320 79 b0 de bc 5b 46 4b 3c d4 5e 00 bc a0 92 1f bd
       -0.027183758 0.012406911 -0.007835109 -0.038958192
000330 1f 3a 5b bd 01 27 77 3c 78 ca 84 3c a6 81 72 3b
       -0.053522225 0.015084983 0.016209826 0.0037003546
000340 10 81 cb bc a7 83 63 bd d7 36 0b 3d 04 f7 00 bd
       -0.024841815 -0.055545475 0.033987846 -0.031485572
000350 5a e5 48 bd fe 9a 0c bc c7 5c 31 bd 75 e1 c7 3d
       -0.04904685 -0.008581875 -0.04330137 0.097597994
000360 9c ae 1a 3d 52 63 1e 3d 9c 70 0f bd 32 60 83 bd
       0.037764177 0.038668938 -0.035019502 -0.06414832
000370 1f c8 7a 3d cc 95 b3 3c 7b 35 62 3d 51 1b e8 3c
       0.061226007 0.021922015 0.055226784 0.028333338
000380 0f d6 a9 bd 07 59 bb bc 41 df 07 be b1 92 2c bc
       -0.082927816 -0.0228696 -0.13268758 -0.010533021
000390 43 7f 5b 3d ef 4a 0d 3d 37 e4 0a bd 21 4b 59 bd
       0.053588163 0.03449529 -0.03390905 -0.053050164
0003a0 95 5c 9a bc 45 1c 3d 3c df 4a 95 3c 9f a4 af 3c
       -0.018842975 0.0115423845 0.018224178 0.021440802
0003b0 47 51 03 bc 10 c6 6e 3c d5 b8 83 bc 4f b2 d9 3c
       -0.0080149835 0.014573589 -0.016079346 0.026574282
0003c0 d5 10 89 bd 55 5c 46 3c f7 ba 98 bc f3 e1 13 3c
       -0.066926636 0.012106975 -0.01864384 0.009026038
0003d0 ed 8e 94 bd de dc c4 bd d0 7a e4 bd eb 55 0b be
       -0.072538234 -0.096124396 -0.11156237 -0.13606994
0003e0 16 e8 cd 3c c7 54 a2 bd 27 6d 9f 3c e7 ec 50 3c
       0.025135081 -0.07926326 0.019461228 0.012751794
0003f0 53 59 93 3d c1 69 72 3d e8 52 2a 3d 77 40 bd bc
       0.071947716 0.059182886 0.04158297 -0.023102028

fc1.bias f4 [128]
000000 f5 5f 69 be ac 65 9b bb 59 2f 4e 3e c4 5c 96 3d
       -0.22790511 -0.004742345 0.20135249 0.073419124
000010 22 5a cf 3d 59 46 a2 3d 0d 22 14 bd 03 86 53 3e
       0.10124613 0.07923574 -0.036165286 0.2065659
000020 83 1e 9a 3d 38 71 1d 3e 57 6b 1b ba ee 75 3b bc
       0.07525351 0.15375221 -0.00059287756 -0.011441691
000030 1d d1 3e b2 dc a0 06 3e c9 ed 91 bc 5d f2 86 bd
       -1.1107002e-08 0.131473 -0.01781358 -0.06589196
000040 c5 29 1a 3e bd b7 09 9d 64 1f c9 b4 57 d8 92 bc
       0.15054996 -1.822679e-21 -3.7462007e-07 -0.017925425
000050 fd 24 0c 3e 10 cd 0c 3d 2b 8a 6f 3e cf f7 4c 3c
       0.13685985 0.03437525 0.2339255 0.012510254
000060 5b 7a 4a bd 42 07 15 ad dc 0b 8c 3e 64 56 2c 3e
       -0.049433094 -8.471281e-12 0.27352798 0.1682983
000070 ca 8f 56 bd d7 4c 54 3e 9e 4e 6f bd 14 8e 09 3d
       -0.05238322 0.20732437 -0.058424585 0.033582762
000080 e2 d3 32 3d 6e 3f 28 bd f8 50 a6 b2 53 23 a6 bb
       0.0436591 -0.041076116 -1.9361764e-08 -0.005070129
000090 03 6f 98 bc 5a a6 db bb 34 c0 09 3e 5e a9 46 3d
       -0.018607622 -0.0067031803 0.13452226 0.048501365
0000a0 23 dd cc bd f4 9c 51 be 0e a1 7b bd aa 0b b5 bc
       -0.10003116 -0.20470029 -0.06143289 -0.022100288
0000b0 52 61 cf 3d f8 d1 46 bd 5c 2e 6c be 81 b7 61 bd
       0.10125984 -0.048540086 -0.2306456 -0.055106644
0000c0 e6 ba a9 bd f9 fe ad 3d 8d 30 c8 bc fb cd 30 be
       -0.08287601 0.08495898 -0.024437213 -0.17266075
0000d0 03 1c 3f 3d d9 24 89 bd 9e 0a a6 bd a7 16 87 3d
       0.046657573 -0.06696481 -0.08107494 0.065961175
0000e0 07 1e e9 3d cb ce 98 bc 6b da 8f bd e1 aa 22 be
       0.113826804 -0.018653294 -0.07024082 -0.15885498
0000f0 6e 7b ff 3d 14 44 1f bc 49 2f 1c 3d 4f ec b6 bc
       0.12474714 -0.009720821 0.038131032 -0.022329478
000100 62 f4 c3 bd 6c 4d 11 3e 02 bc 17 3e a2 a7 8d 3e
       -0.09568097 0.1418969 0.14817813 0.27666956
000110 1a d3 a8 3d a0 3a b2 3d ed b8 1f bd a2 9d 14 93
       0.082433894 0.08702588 -0.03899472 -1.8757945e-27
000120 00 c2 26 3d fe 7e 8e 3d c2 d6 3a 3d 3e ed 08 bd
       0.040712357 0.069578156 0.045614965 -0.033429377
000130 48 b2 c6 bd 93 14 a4 bd 54 46 31 bd 82 90 b1 3b
       -0.09701973 -0.08011737 -0.04327996 0.005418838
000140 a6 63 08 3e cd b8 f2 bd ff 94 53 3e f6 02 77 b4
       0.13319263 -0.11851654 0.20662306 -2.3004745e-07
000150 c6 a3 6e 3e 34 a1 3c 3e 0b b7 a9 3d 5a af 93 3d
       0.23304662 0.18420869 0.08286866 0.0721118
000160 c2 51 2e 3d 5a 0a ab 11 68 c4 a2 3d c5 fd 7f 3e
       0.04255844 2.6985423e-28 0.07947618 0.24999149
000170 03 d5 52 3e 04 d5 bf b8 99 44 d7 3d 13 a9 d1 3c
       0.2058907 -9.147267e-05 0.10511131 0.025593316
000180 a4 d6 ea 3d d0 99 a5 bd 55 7d a5 3d c5 34 a9 bd
       0.11466721 -0.08085978 0.08080546 -0.08262018
000190 e9 c1 1c 3d 28 cf 21 3e 9b 3f f6 3d 28 cf b8 3d
       0.038270865 0.1580168 0.120238505 0.09023887
0001a0 3a 3a 87 3e 85 06 4e be 44 96 67 3e 43 e6 3b 93
       0.2641161 -0.20119675 0.22615916 -2.3716246e-27
0001b0 5e 3e 6d 3d c1 56 8b 3d 55 93 0b b7 3e 75 ee 3c
       0.057920806 0.06803656 -8.319349e-06 0.02910864
0001c0 b8 a5 15 3d 58 48 dd ba 0b 30 b1 3d 33 6b 85 ba
       0.036534995 -0.0016882522 0.086517416 -0.0010179043
0001d0 0e 83 0f 3e 41 86 73 3d 5f a7 cf 3b 6c 7e ef 3b
       0.14014837 0.059454206 0.006337091 0.007308772
0001e0 3f d1 0e 3e 20 cc e0 bd c0 b7 7c bd d0 7f de 3d
       0.13947009 -0.10976434 -0.061698675 0.10864222
0001f0 e1 ea 89 bd 13 59 81 bc 9e 20 3e 3e bc 16 87 3e
       -0.06734253 -0.015789544 0.1856713 0.26384532

fc2.weight f4 [128, 128]
000000 80 78 fa b9 57 98 cf 3b dd 6c 85 bd ce 01 73 3d
       -0.00047773495 0.006335299 -0.06514905 0.059327893
000010 53 d3 97 3d 8a 3b 11 bd bd 4a 07 bc 9c 39 7c bd
       0.07413354 -0.03545717 -0.008257565 -0.061578378
000020 4d be f9 3c e3 93 e2 3d e0 27 4b b9 87 53 fd 3a
       0.03048625 0.110633634 -0.00019374443 0.0019327261
000030 a3 3e 9d 35 47 ed 92 3c 54 7a c2 bb 6e 6f 80 3d
       1.1715641e-06 0.017935408 -0.005934993 0.062712535
000040 92 65 8e bc 26 eb f6 9f 6b 36 e0 b3 c3 b9 d8 3d
       -0.017382417 -1.0457407e-19 -1.04407114e-07 0.10582306
000050 94 fd 1b bd 80 9a 90 bd ad f3 31 bd d3 86 0a bd
       -0.038083628 -0.070607185 -0.043445278 -0.033819985
000060 b3 40 11 3e 3e a0 d7 36 fc fd 45 bd c3 28 d4 bc
       0.14184837 6.426154e-06 -0.04833792 -0.025898343
000070 d2 f8 d4 3d 49 e6 65 3c d5 4b 01 bc 63 26 b0 3d
       0.10399021 0.014031955 -0.007891615 0.08601072
000080 60 f2 b1 bd a7 90 65 3c 97 f6 b6 32 99 e6 46 3c
       -0.086888075 0.014011539 2.1299725e-08 0.01213994
000090 12 e5 d7 ba 12 11 8b 3b af 15 b0 3d 1e 9b 42 3d
       -0.0016471467 0.0042439783 0.08597886 0.047511213
0000a0 e9 e7 c5 bd 42 c3 ce 3d 9d 81 0a 3e 37 0e e5 3c
       -0.09663374 0.10095836 0.13526006 0.02796088
0000b0 4a 20 4f 3b 0e 6a ee bc 2a 88 4d 3c 89 53 da 3d
       0.003160494 -0.029103305 0.012544671 0.10660464
0000c0 9c 86 c3 3d cf 46 d4 3d fd 2d b0 3d 66 43 da bd
       0.09547159 0.10365068 0.086025216 -0.106573865
0000d0 ec e9 72 ba ff 22 48 bd e3 d8 9d 3d c5 f5 09 3e
       -0.00092664245 -0.0488615 0.077073835 0.1347266
0000e0 51 44 95 3c cc 16 42 bc 1c c4 d6 bb 2d 11 97 3d
       0.018221052 -0.0118462555 -0.00655414 0.07376323
0000f0 a6 d1 39 bd 1a 08 44 bc 47 60 ef 3d 10 d8 65 3c
       -0.045365952 -0.011964822 0.11688285 0.014028564
000100 5d d9 a8 bc 82 74 35 bd bb 34 56 3c 95 ff 8f bd
       -0.02061146 -0.044300564 0.013074095 -0.0703117
000110 a7 6f b1 3d 01 5f 7a bd 27 42 4a bd c7 5d 05 32
       0.08663874 -0.06112576 -0.049379494 7.762941e-09
000120 13 78 13 bc 8e 7f cb 3d ad 4d 28 3d 04 c8 0d be
       -0.009000796 0.099364385 0.041089702 -0.13845831
000130 a4 01 1f 3d e6 d4 bc 3c 11 1f bd 3c 36 a7 8d bc
       0.038819924 0.023050737 0.023086103 -0.017291646
000140 83 ab b5 bd 03 48 d4 3d 39 60 57 3c 42 86 c3 b5
       -0.08870604 0.10365298 0.0131455 -1.4567706e-06
000150 ac 38 b4 bd 34 7e 59 3b bf c1 7c bd 90 54 c5 bc
       -0.08799872 0.0033186795 -0.06170821 -0.024088174
000160 32 ab ce 3d c0 0a 01 26 e2 80 d4 3c e5 83 b0 3d
       0.10091247 4.4770435e-16 0.025940362 0.08618907
000170 1f 78 75 bd c2 92 a2 37 b9 61 69 3e 12 02 ca bc
       -0.05992901 1.9380244e-05 0.22791184 -0.02465919
000180 61 e0 2f be 22 dd 1e 3d e3 28 2e bd 47 5e 9c bd
       -0.17175438 0.038785107 -0.04251946 -0.076351695
000190 9f 92 43 bd 05 cd 81 3b b5 43 1f 3e 23 52 cd bc
       -0.04774725 0.003961208 0.15553172 -0.02506358
0001a0 9d 5f 6a bb 60 87 1f bd a5 a3 ff 3c 04 d0 9a ae
       -0.0035762556 -0.038947463 0.031205961 -7.04006e-11
0001b0 9c b2 1e 3d 4c 14 9e 3d 62 f4 bf 39 f2 6f fd 3c
       0.038744554 0.07718715 0.00036612438 0.030937169
0001c0 b2 ca 0b be 2f b1 09 ba 63 e1 44 3d 1b 5f 45 bb
       -0.13651541 -0.00052525377 0.048066508 -0.0030116502
0001d0 92 05 ee 3d 2c 27 65 3d 0b 8a d9 bc 2d c8 18 3d
       0.11622156 0.05594556 -0.026555082 0.037300278
0001e0 7c 15 56 be 22 4e ba 3a 96 7e 19 bd 90 07 dd bc
       -0.20906633 0.0014213959 -0.037474237 -0.026981145
0001f0 49 8e c1 bd 0d ec 16 3d 80 09 b1 3c 12 40 d5 3d
       -0.09450967 0.03684621 0.021610975 0.10412611
000200 33 14 39 3d 16 cb 94 3c c3 db 3b 3d 6c 5c 22 be
       0.04518528 0.018163245 0.045863878 -0.15855569
000210 95 fa 68 bb 64 b7 f7 3d 17 06 44 bd 3d af ef 3d
       -0.003554975 0.12095526 -0.04785737 0.11703346
000220 94 56 f4 3c f0 e2 3c 3d 17 bc c4 b9 9c b6 44 3c
       0.02982644 0.046114862 -0.0003752417 0.012006428
000230 b5 cd 49 37 cb c6 95 3d 9f eb a2 3b 8d ca b6 3c
       1.20284285e-05 0.073133074 0.004971936 0.02231338
000240 a2 2b 19 bd e2 ec b3 25 66 60 31 b9 05 3d 6f bb
       -0.037395127 3.1212068e-16 -0.00016915947 -0.0036504876
000250 b3 58 98 bd 7f c1 1f 3e fa 2a 0f bd a0 65 cb be
       -0.07438793 0.15601157 -0.034953095 -0.3972597
000260 1f 5d 0c 3e da a3 40 36 34 fb ca 3c 6c de ba 3d
       0.13707398 2.8705604e-06 0.024777986 0.09124455
000270 81 df e5 3d c5 f7 d1 bc be b5 1f 3d 03 65 e6 3c
       0.112242706 -0.025630841 0.038991682 0.028124338
000280 14 8f 39 bd d1 e1 a4 be 89 a5 8d 39 ef 14 9a 3d
       -0.045302466 -0.32203534 0.0002701695 0.07523524
000290 c3 db ba 3c 37 8b f5 3b b2 bf 2f 3e 8d 4c 4a bb
       0.022809869 0.0074934023 0.1716297 -0.0030868382
0002a0 b4 e7 2e 3d 04 2e 98 bc 07 cf 15 be 79 15 bf 3d
       0.042701438 -0.01857663 -0.14629756 0.093302675
0002b0 d2 bb 1d be 35 e8 73 bc b8 9d a2 3b 79 8b 1c 3d
       -0.15403679 -0.014886905 0.004962649 0.03821895
0002c0 7a 56 2b 3d 93 42 84 bd ad e8 80 be bf b0 11 3d
       0.041830517 -0.064580105 -0.25177518 0.03556895
0002d0 53 88 d1 bd 38 61 5b be b3 fd 1e be dc 3f 6f 3e
       -0.1023108 -0.21423805 -0.15526466 0.23364204
0002e0 6d e5 28 3d 7c f7 0f 3c 2b 20 53 be 8f 1c fa 3d
       0.041234422 0.008787032 -0.2061774 0.12212478
0002f0 30 06 10 be cb 09 aa 3b 58 30 14 3d bb 49 16 3c
       -0.1406486 0.0051891557 0.036178917 0.009172852
000300 e0 a1 cd bd 85 28 58 be 5a 93 15 be e7 06 aa bd
       -0.10040641 -0.21109207 -0.14606991 -0.08302098
000310 3a 4e 0d 3e 0f f5 8f bd 88 77 86 bd f4 26 2d 31
       0.13799372 -0.07029163 -0.065657675 2.5196956e-09
000320 cd bf 9a 3c 50 8c 4e 3d e7 c1 e1 3d 08 ed 08 be
       0.018890286 0.05042678 0.11023312 -0.1337167
000330 a1 5c f8 bd 28 82 ad bd 9f 7e 57 3e 9d 22 ce bd
       -0.121270426 -0.08472091 0.21044396 -0.10065196
000340 c6 e0 23 3e 33 e7 31 3d 03 f4 2a 3e e2 2c e8 39
       0.16003713 0.04343338 0.16694646 0.0004428393
000350 59 04 14 be b2 66 e6 3c ca ec ae be ae 03 b9 3c
       -0.14454783 0.02812514 -0.3416503 0.022584762
000360 24 4a f2 3c 94 8b 49 22 f8 5c 6f be d7 0f 1c bd
       0.029576369 2.7314472e-18 -0.23375309 -0.038101044
000370 f8 ee 32 bd d8 bd 7c b9 9c 77 64 bb 51 d6 1c be
       -0.04368493 -0.00024103315 -0.0034861332 -0.1531613
000380 a9 42 4e bd a1 15 53 bd 11 26 5d bd 81 b5 2a 3d
       -0.05035654 -0.0515343 -0.05399138 0.041677002
000390 28 c7 a6 be 2a 8e cf 3d fe a6 85 bd 1b 92 91 bd
       -0.3257382 0.101345375 -0.06525992 -0.071079455
0003a0 b4 9c 18 be 1f f8 78 3d 2f f2 8d be bc 2c ad 33
       -0.14903527 0.0607835 -0.27723834 8.0640774e-08
0003b0 e1 89 b1 bd 12 6b fb bd 23 46 da 3a 6b 6a d6 bd
       -0.086688764 -0.122762814 0.0016652982 -0.10469516
0003c0 15 43 4e 3d 02 3b d8 ba 3d 6f f1 3d ab 13 70 3b
       0.050356943 -0.0016497078 0.11788795 0.0036632817
0003d0 df 17 e5 3d 60 c1 8d bc c9 d8 fc bd 94 14 5c 3e
       0.11186194 -0.017304122 -0.12346036 0.21492225
0003e0 ec cd 30 be 12 87 17 bb 6f 40 e7 3b fa db 1b bc
       -0.17266053 -0.002312128 0.0070572416 -0.009512896
0003f0 5f 58 81 be ed 79 d3 3d ce c9 5e 3e f7 dd 45 3e
       -0.25262734 0.1032599 0.2175667 0.19322954

fc2.bias f4 [128]
000000 33 88 9b bc 5c 17 80 3d 08 44 65 3d f8 bc fe bd
       -0.018985843 0.062544554 0.055973083 -0.12438387
000010 20 13 af a5 db e8 d7 bd b9 d0 23 3e 0f 76 87 3e
       -3.037062e-16 -0.105424605 0.1599759 0.2645726
000020 c3 ab 33 3b b0 2d 53 bd e2 2c 65 3e af 58 9f 3d
       0.002741561 -0.051557243 0.22380403 0.07780587
000030 0e cb 86 a1 bc 8a a9 3c 0f 90 85 3d c1 94 30 bc
       -9.133941e-19 0.020696037 0.065216176 -0.010777653
000040 05 75 59 bc 64 4e b7 3d 3b 39 c7 bd b1 69 b4 b8
       -0.013272529 0.08950499 -0.09727713 -8.6027554e-05
000050 9e fd db af b4 b2 10 3e d3 8f 11 3e 79 fa f8 3d
       -4.0016074e-10 0.1413067 0.14215021 0.12157149
000060 cb f8 bd bc 65 31 31 b3 cc 2a 91 3d 57 c2 6e 3e
       -0.023189923 -4.1255948e-08 0.07088241 0.23316322
000070 fd c4 1e 3d ae 00 9b ba da d4 1e bd 3c 8a dd bd
       0.03876208 -0.0011825764 -0.03877721 -0.10817382
000080 60 27 c3 3d 89 dc 94 3b 8f d1 04 3e 2f d7 77 3e
       0.095289946 0.0045428914 0.12970565 0.2420318
000090 bc 00 5c bc 08 be 14 bd fd d9 33 3d a7 01 57 3d
       -0.013427909 -0.03631404 0.04390906 0.05249181
0000a0 c4 94 50 3e 70 a9 31 3e 2d 92 c4 a9 7d 97 2f 3e
       0.2036925 0.17349792 -8.729506e-14 0.17147632
0000b0 92 c9 d3 3d 14 f9 60 3e 8b 0d 13 3e bc 3e 05 bc
       0.10341181 0.21970016 0.14360635 -0.008132633
0000c0 da f7 07 9c 30 8e 27 80 b2 5a f1 bd bb fd 86 3b
       -4.4988094e-22 -3.632592e-39 -0.11784877 0.0041196025
0000d0 e7 73 b4 3d 04 58 0c be 82 2a be 3d 66 30 2c 3e
       0.08811169 -0.1370545 0.092854515 0.16815338
0000e0 3e cf f7 3c f8 91 a8 3d 78 d2 0f 3e 5e c7 8c 3d
       0.030250188 0.08230966 0.14045131 0.06873964
0000f0 2e db 01 3e 72 15 58 bc 65 8a 32 3d 59 fa cb b9
       0.12681267 -0.013188707 0.043589015 -0.000389057
000100 9b 60 19 ad 03 fc 30 3e 60 9c f7 3d e5 2a dd b8
       -8.718494e-12 0.17283635 0.12090373 -0.00010546091
000110 ba d6 18 3e a8 2a 50 3d 2f 72 65 3e f2 2d 5e 3d
       0.14925662 0.05082193 0.22406839 0.054243036
000120 2c da 16 bb cb cc 01 bd 12 49 f6 b9 09 a8 d9 3d
       -0.0023018224 -0.031689446 -0.00046975218 0.10627753
000130 16 d1 29 3c 76 2d b8 3d b3 3f c4 bb 88 b3 ea 3d
       0.010364791 0.08993046 -0.005989039 0.11460024
000140 3e 44 b2 3e 78 8a 0f be ab ca 32 bd f1 51 71 3e
       0.3481769 -0.14017665 -0.04365031 0.23566414
000150 1e ae 71 3e 97 56 af bd 33 70 d2 3d 88 aa ce b6
       0.23601577 -0.085614376 0.102753066 -6.159131e-06
000160 51 5e 18 be 66 94 01 3e 60 2c 83 bd 7b 69 ac 3c
       -0.14879729 0.12654266 -0.06404948 0.02104639
000170 6f db 74 bd 2f 35 d1 3c 55 f8 df 3d c0 f9 49 bd
       -0.05977958 0.025538055 0.109360375 -0.049310446
000180 1b b7 e9 bd 6b f9 fb 3d 1a 8d c8 b9 b3 4b b8 b4
       -0.11411878 0.12303432 -0.00038252102 -3.432775e-07
000190 e9 26 10 3e 6f 25 10 b9 0d 12 c4 9c df 5d 2d 3e
       0.14077343 -0.00013746855 -1.2974858e-21 0.1693034
0001a0 ef ec d6 bd 0d 19 c7 a4 33 73 21 3e 20 94 42 bd
       -0.1049441 -8.634493e-17 0.15766601 -0.047504544
0001b0 1f 76 28 a7 cb d2 15 3c 72 c3 65 3e 6d d8 5f 3e
       -2.3378717e-15 0.009144495 0.22437838 0.21859904
0001c0 ca 1a 84 bd d4 8c 88 3e db 2c fc bd a1 e6 d7 bd
       -0.06450422 0.26669943 -0.12313243 -0.10542036
0001d0 c3 b6 a3 bb b7 6c b8 ab e8 5b 0f 3e 93 5e 7e 3d
       -0.004996152 -1.3104161e-12 0.13999903 0.06210191
0001e0 a3 c4 f5 3c 5e d6 30 bd f2 6b 81 3d 09 1b bb b9
       0.03000099 -0.043173186 0.06319417 -0.00035687562
0001f0 3a 00 0e 00 6f 9a c0 b9 14 4c db bd 0a b5 0e b3
       1.285778e-39 -0.00036736156 -0.1070787 -3.3226605e-08

fc3.weight f4 [128, 128]
000000 ba 81 d8 3c 26 2a 1b 3c 02 1b 61 3d 98 2c 63 3e
       0.026429046 0.009470498 0.054957397 0.2218498
000010 73 f9 af 19 01 ea 16 3d fc 88 a6 3d 71 9b a6 3b
       1.8195328e-23 0.036844257 0.081315964 0.005084448
000020 2e 58 ea 3d eb 23 b6 3d df 4c 53 be 47 92 c7 bd
       0.114426 0.088935696 -0.20634793 -0.09744697
000030 ca f1 24 13 af e4 87 3c f1 0a 14 bd bd ad 2c 3b
       2.0818921e-27 0.016588537 -0.036143247 0.0026348673
000040 65 d3 87 3b e0 4a 4c bd 59 07 60 bd b2 ad 49 ad
       0.0041450732 -0.049876094 -0.054694507 -1.1464095e-11
000050 97 46 24 80 4d 66 0e 3e c6 59 12 3e fe 2c cd 3d
       -3.331401e-39 0.13906212 0.14292058 0.10018347
000060 e9 b6 5c be 9f 67 87 b2 8e c3 2e bd c6 21 29 3c
       -0.2155415 -1.576319e-08 -0.042666964 0.010322994
000070 1b f2 10 be ff 48 87 38 45 41 33 b9 0c e5 12 3e
       -0.14154856 6.450898e-05 -0.00017095085 0.14345187
000080 51 a8 21 be 33 22 fe 3d 08 7d 7a 3d 61 07 87 bc
       -0.15786864 0.12408867 0.061154395 -0.01648301
000090 29 18 95 b9 4f 15 5c 3d 12 c0 29 3e 49 2d 07 3d
       -0.00028437495 0.05373126 0.16577175 0.03300217
0000a0 44 47 bf 3b 0c 41 76 bd 49 c8 d1 a0 22 c4 72 bd
       0.005837353 -0.060120627 -3.5538515e-19 -0.059269078
0000b0 47 d2 10 bd 52 8f a3 3c 52 9a 12 bd 16 b2 4f 3d
       -0.035356786 0.019965801 -0.035791703 0.050706945
0000c0 8b 39 cb 25 a7 95 c5 05 44 1c f1 3d 5b 49 90 3d
       3.525388e-16 1.8580765e-35 0.11772969 0.070452414
0000d0 54 85 6f 3d de 3d 3a 3e f5 9d 31 3c ad 82 17 be
       0.05847676 0.18187663 0.010840883 -0.14795943
0000e0 20 f7 d1 bd f8 91 9b 3c 48 28 3a be 24 94 a3 3c
       -0.102522135 0.018990502 -0.18179429 0.0199681
0000f0 db 46 a1 ba ce af 16 bc 58 fb dc 3d 5c 12 d0 36
       -0.0012304442 -0.009197189 0.107901275 6.2010204e-06
000100 1e 0b da 22 6d 11 48 3a 18 c9 cb bb c3 4c ba 3a
       5.910079e-18 0.0007631991 -0.0062190406 0.0014213551
000110 a6 74 4d 3d c7 d1 b8 bb 2e 41 18 bd 1a 98 2b 3e
       0.050160073 -0.005640242 -0.037171535 0.16757241
000120 ce 5e 2a b6 2a 7b c0 3b e6 3b 9d b7 75 49 11 be
       -2.5387158e-06 0.0058740573 -1.874375e-05 -0.14188178
000130 1c 28 54 bc ab b4 4f 3d 47 1b 52 3e df 19 18 3e
       -0.012949016 0.050709408 0.20518218 0.14853619
000140 e6 42 2a be 2a a1 bf bd 59 a5 6f 3d 90 1c 00 be
       -0.16627082 -0.093569115 0.058507297 -0.12510896
000150 de 13 f3 bd 96 fe 67 3b c0 c9 83 3d 73 92 bd b2
       -0.11869024 0.0035399548 0.06434965 -2.2069093e-08
000160 35 2a f0 3c 6c fd 59 bc 17 c9 a9 3d 90 91 d7 bd
       0.029317 -0.013305049 0.08290308 -0.10525811
000170 da 91 14 be 34 d3 8c 3d ce 1f 7a bd 1c 96 70 3d
       -0.14508763 0.06876221 -0.061065488 0.058736905
000180 58 0c 01 3c dc fd 90 3e 89 ce e0 37 5f 12 84 21
       0.007876478 0.2831868 2.6799056e-05 8.949531e-19
000190 25 09 b9 bc 71 00 f2 34 ae 01 7a 21 20 03 c0 3d
       -0.022587368 4.5076334e-07 8.470552e-19 0.09375596
0001a0 62 56 a3 bc 6d f9 3b 00 15 3d 34 3d 55 6c e3 3d
       -0.019938651 5.507771e-39 0.044003565 0.11104647
0001b0 3e f1 5b b3 0e 23 d1 3c 68 3f de 3c 52 0c 02 3e
       -5.120932e-08 0.02552941 0.027129844 0.12700012
0001c0 2c 47 18 3d ef 15 fe bd be 59 48 3e 16 ba dc 3b
       0.03717725 -0.12406527 0.19565484 0.0067360504
0001d0 f4 d6 d6 3a 22 f1 95 28 0c 8f 32 3d e7 ee a1 bd
       0.0016390965 1.6646898e-14 0.04359345 -0.07906895
0001e0 b2 23 11 3d 35 1b d3 3c 6f 18 df 3d e4 cb a5 38
       0.035434432 0.02576981 0.10893332 7.905791e-05
0001f0 50 92 0f 80 cf af a8 34 fa 5c 32 3e 32 d9 81 a9
       -1.43002e-39 3.1420356e-07 0.1741828 -5.766428e-14
000200 a8 03 7f b8 aa c1 62 37 25 2d ca b6 a6 e9 f5 36
       -6.0800143e-05 1.3515741e-05 -6.0253246e-06 7.3287692e-06
000210 54 ae 8c 80 83 ef 4a b7 c3 6b 11 b7 38 e0 31 b6
       -1.2919507e-38 -1.2095904e-05 -8.667764e-06 -2.6505568e-06
000220 b3 8e f8 b8 de 67 f9 b7 61 74 8c b7 a7 55 f8 35
       -0.00011852141 -2.973148e-05 -1.6743494e-05 1.8502368e-06
000230 53 60 5c 80 11 8c 3c b8 b1 61 ba b8 d7 48 0f 00
       -8.48342e-39 -4.495314e-05 -8.8873676e-05 1.403662e-39
000240 9a 0c 75 80 01 7f e5 35 54 3a 7f b8 60 9a 53 80
       -1.0749274e-38 1.7098793e-06 -6.085106e-05 -7.677725e-39
000250 a6 6c 44 00 ca c1 a0 b7 d5 92 dc b8 bd 05 07 b8
       6.28379e-39 -1.9163726e-05 -0.00010517767 -3.2191852e-05
000260 42 02 27 b7 34 bb 53 00 eb ba db b6 a1 4f f0 36
       -9.954501e-06 7.689502e-39 -6.5484687e-06 7.1618274e-06
000270 5a 16 64 b7 44 eb 47 80 8d d7 bf b8 10 ee 49 b8
       -1.3595063e-05 -6.604718e-39 -9.147739e-05 -4.8143847e-05
000280 dc f0 28 b7 e8 ec 53 b8 ce 1f f5 b7 03 a0 c1 37
       -1.006966e-05 -5.0526956e-05 -2.9221086e-05 2.3081904e-05
000290 e5 d1 ad b4 31 dd 26 b7 7b 46 a7 b8 da bc da b7
       -3.237648e-07 -9.945871e-06 -7.9763086e-05 -2.6075566e-05
0002a0 97 2a c7 37 75 de a5 b5 8f 26 3b 80 1a ef 44 b7
       2.3742481e-05 -1.2358202e-06 -5.432126e-39 -1.1738181e-05
0002b0 cc 42 0e b9 26 2d ac 37 e9 54 9b b6 28 97 64 33
       -0.00013567059 2.0525022e-05 -4.629245e-06 5.3222863e-08
0002c0 54 b5 15 00 75 0f 7d 00 25 6a f6 b7 5e 17 60 b8
       1.993594e-39 1.1484982e-38 -2.9374913e-05 -5.3427524e-05
0002d0 56 84 07 36 d0 d4 3a b8 45 b6 23 b6 93 8f 70 b6
       2.0193597e-06 -4.4544053e-05 -2.4394988e-06 -3.5846358e-06
0002e0 31 eb d7 36 c2 19 bd 36 77 f0 d9 b7 56 df 44 b7
       6.434879e-06 5.6356375e-06 -2.5980391e-05 -1.173451e-05
0002f0 54 b7 14 b8 bb ce 05 00 60 72 7d b4 ca 64 2a 00
       -3.5456687e-05 5.33338e-40 -2.360407e-07 3.893247e-39
000300 ed 0b 72 80 bd 62 a4 b7 17 4b 1b b8 a1 dc 02 80
       -1.0473525e-38 -1.9596302e-05 -3.7024813e-05 -2.62818e-40
000310 be 39 61 b8 0d 79 a4 b7 21 a0 96 36 7c 72 91 b7
       -5.3697957e-05 -1.9606692e-05 4.48899e-06 -1.7338658e-05
000320 2e 9c 1b 00 c4 2e 84 b8 4e ef 32 80 5b 44 0e 37
       2.535585e-39 -6.302961e-05 -4.677621e-39 8.479775e-06
000330 93 a7 20 b9 eb 27 bc b7 92 e2 20 37 3a 81 2d 36
       -0.00015321215 -2.2429935e-05 9.589496e-06 2.5854229e-06
000340 d0 92 c6 b5 a7 db 86 36 b2 46 65 b8 b2 39 73 37
       -1.4794878e-06 4.019082e-06 -5.4663695e-05 1.4497362e-05
000350 fe c2 9a b7 14 7e a4 b8 b8 cc c6 b8 62 63 45 00
       -1.844903e-05 -7.843613e-05 -9.4795076e-05 6.372301e-39
000360 cb 26 05 b7 d0 cc c4 b7 18 ac 3e b8 fd a0 09 b8
       -7.93645e-06 -2.3460394e-05 -4.5459805e-05 -3.2813277e-05
000370 93 d0 91 b6 53 52 e8 b7 8d c0 94 b6 f4 16 a4 b8
       -4.345618e-06 -2.769489e-05 -4.4331596e-06 -7.824405e-05
000380 36 44 2e 38 5d ea 44 37 c5 03 1b 00 23 3d 8d 00
       4.154836e-05 1.1737077e-05 2.48091e-39 1.2970737e-38
000390 68 d9 c7 35 c1 d2 2c 80 84 63 49 00 3c 65 82 b6
       1.4889929e-06 -4.116366e-39 6.73969e-39 -3.886087e-06
0003a0 72 75 ec 37 f1 09 74 00 70 e5 41 b5 01 67 16 b8
       2.8188082e-05 1.0656484e-38 -7.223198e-07 -3.5858717e-05
0003b0 13 05 73 80 f5 2f 9d b6 f9 aa 44 b7 ed 0c a9 36
       -1.0562902e-38 -4.6845475e-06 -1.1722318e-05 5.0380972e-06
0003c0 d3 44 9b b6 cf e3 b3 35 02 b3 03 38 17 49 7d b8
       -4.627372e-06 1.340284e-06 3.1399548e-05 -6.038797e-05
0003d0 22 3d 4b 00 fe f9 85 9c c3 16 b1 b6 57 b8 08 b8
       6.909593e-39 -8.865823e-22 -5.277661e-06 -3.2596607e-05
0003e0 08 d3 0a b6 a6 98 4b b8 e1 64 1e b6 b1 86 1e 00
       -2.0686439e-06 -4.8541136e-05 -2.3602554e-06 2.803383e-39
0003f0 bb 28 90 00 e6 8d 1a 80 a4 aa 45 b8 09 ad 08 80
       1.3238923e-38 -2.438626e-39 -4.712738e-05 -7.96757e-40

fc3.bias f4 [128]
000000 98 8d dd 3c 0f ab 69 b8 d3 42 14 bd ab 60 82 b2
       0.027045056 -5.571084e-05 -0.03619654 -1.5177951e-08
000010 60 14 b4 3d 0e e4 1b 3e fb 12 80 3e 68 e1 3d 3e
       0.08792949 0.15223715 0.2501448 0.18543017
000020 74 62 04 af 26 42 a3 bb 69 4f f1 3d 14 db 28 bd
       -1.2040308e-10 -0.0049822507 0.117827244 -0.041224554
000030 a3 1a a3 3b f7 30 d8 bc 83 1d 84 bd 0e 9e 82 3c
       0.0049775406 -0.026390536 -0.064509414 0.015944507
000040 73 99 d3 3d c9 d3 91 bd 0b 1e 0c bd 16 8b 1c 3e
       0.103320025 -0.07120473 -0.03420834 0.15287432
000050 b9 45 24 bd 2b 7a f2 3b 1c 1e ab 3d e8 12 cb 3d
       -0.040105555 0.0073998175 0.08355352 0.099157155
000060 95 25 9e 2d 9a 9a ad bd 07 44 a4 bb 31 86 19 3e
       1.797921e-11 -0.084767535 -0.0050129923 0.14992596
000070 e5 ea 93 3d a9 e5 74 3e f9 25 45 3e a8 84 19 3d
       0.07222537 0.23915733 0.19252767 0.037480026
000080 01 8a f0 3d 24 fd 6d 3d 9b d5 0e 3d 46 cd da 3d
       0.11745072 0.05810274 0.03487168 0.10683684
000090 0f c7 1b 3e f2 df 95 3d 79 4c cc bc d3 c1 93 3d
       0.15212654 0.07318105 -0.024938809 0.072147034
0000a0 dc 56 64 3d a1 94 48 3e ba a5 ef 3c 6d fe d9 3d
       0.055746898 0.19587947 0.02925383 0.10644231
0000b0 12 41 c9 3d 53 16 a0 bc f8 77 c6 3b e2 33 f7 3d
       0.09826864 -0.019541895 0.006056782 0.12070443
0000c0 3b d0 b9 3d 43 50 e2 3d b2 43 06 bc 74 0b 06 3e
       0.0907292 0.11050465 -0.008194851 0.13090307
0000d0 85 1b f2 bb 07 83 52 3d 25 89 9a 3d 2d ab f0 3d
       -0.0073885345 0.05139449 0.075456895 0.11751399
0000e0 e7 5f d2 bc b2 de 31 3e af 03 30 3d 08 39 d7 3c
       -0.025680495 0.17370108 0.042972263 0.026272312
0000f0 5b f6 0c 3e 75 d3 cc bc 40 f9 a0 ab e7 12 e2 3d
       0.13765852 -0.025003174 -1.1437865e-12 0.110387616
000100 87 f3 28 bb c1 e3 a3 3b 96 86 68 3e 93 67 44 3e
       -0.002577992 0.0050015156 0.2270759 0.19180135
000110 34 c4 0e 3c d3 da c2 3a 1a 76 09 b5 67 35 04 3e
       0.008713771 0.001486624 -5.120834e-07 0.12910996
000120 6d 46 a9 bc fa d5 3e 3d c0 fe 5c 3e bc 7c 8a 3a
       -0.020663464 0.046590783 0.21581554 0.0010565738
000130 3f bb d7 3d df 27 bd 3d 16 bd cc bd 2e 23 62 bc
       0.10533761 0.092361204 -0.09997003 -0.013802333
000140 bc 62 94 bb a0 cc e9 8f 94 35 a5 3d c0 d0 02 b9
       -0.0045283716 -2.3054393e-29 0.0806686 -0.00012475532
000150 2d c1 03 3d 6b ac 31 3e b5 1f a6 3d 3d ed de bd
       0.03216665 0.17350928 0.081115164 -0.10885093
000160 fd a1 a2 3d ee e9 21 b8 a7 77 a4 3d 2b 1b 03 3e
       0.07941053 -3.8603255e-05 0.080306344 0.12803333
000170 18 b1 36 3e c1 10 85 bd c1 2f 03 bd 60 53 68 3d
       0.17840993 -0.06497336 -0.032027964 0.056720138
000180 fc c0 46 b7 e7 d3 d5 3d aa a3 88 bd a9 25 81 bc
       -1.1846652e-05 0.10440808 -0.066718414 -0.015765028
000190 51 a5 7a 3e 53 c8 15 b5 f0 0a 35 b8 40 f2 e0 3b
       0.24477126 -5.5798336e-07 -4.316395e-05 0.006864816
0001a0 c1 5a da a4 a2 3c 84 bc 87 27 c3 3c 72 c3 83 3c
       -9.469617e-17 -0.016142193 0.023822559 0.016084407
0001b0 0f 13 9c 3e 0f 95 82 bd 34 b5 69 3d 3c 3f 8d b3
       0.3048329 -0.06376087 0.057057574 -6.5773264e-08
0001c0 98 59 19 bc 14 e8 67 b0 f8 69 1b be 2b 2a 4a b4
       -0.00935974 -8.4367113e-10 -0.15177143 -1.8828057e-07
0001d0 96 4b 90 3d 10 22 ae 3d 92 e4 d7 bc 9b 82 70 3d
       0.07045667 0.08502591 -0.026354108 0.058718305
0001e0 59 b0 a7 3d b9 74 b1 3b a0 6c 11 be 9c fb 86 3d
       0.081879325 0.0054155258 -0.14201593 0.065909594
0001f0 a8 d2 84 a1 a2 00 6a 3d 63 0b 42 bc 6f b0 85 bd
       -9.000428e-19 0.05712951 -0.011843535 -0.06527793
